…
elative_Importance
0  Holiday             0.003793
1      Day             0.010821
2     Year             0.019541
3    Month             0.022248
4   DewPnt             0.033544
5  Weekday             0.054362
6  DryBulb             0.389083
7     Hour             0.466609

---     0.653 seconds --- Feature Importance




Standard Scaler for all


Model: "sequential_1"
_________________________________________________________________
Layer (type)                 Output Shape              Param #   
=================================================================
lstm_1 (LSTM)                (24, 128)                 66560     
_________________________________________________________________
dense_9 (Dense)              (24, 32)                  4128      
_________________________________________________________________
activation_8 (Activation)    (24, 32)                  0         
_________________________________________________________________
dense_10 (Dense)             (24, 32)                  1056      
_________________________________________________________________
activation_9 (Activation)    (24, 32)                  0         
_________________________________________________________________
dense_11 (Dense)             (24, 32)                  1056      
_________________________________________________________________
activation_10 (Activation)   (24, 32)                  0         
_________________________________________________________________
dense_12 (Dense)             (24, 32)                  1056      
_________________________________________________________________
activation_11 (Activation)   (24, 32)                  0         
_________________________________________________________________
dense_13 (Dense)             (24, 32)                  1056      
_________________________________________________________________
activation_12 (Activation)   (24, 32)                  0         
_________________________________________________________________
dense_14 (Dense)             (24, 32)                  1056      
_________________________________________________________________
activation_13 (Activation)   (24, 32)                  0         
_________________________________________________________________
dense_15 (Dense)             (24, 32)                  1056      
_________________________________________________________________
activation_14 (Activation)   (24, 32)                  0         
_________________________________________________________________
dense_16 (Dense)             (24, 32)                  1056      
_________________________________________________________________
activation_15 (Activation)   (24, 32)                  0         
_________________________________________________________________
dense_17 (Dense)             (24, 1)                   33        
=================================================================
Total params: 78,113
Trainable params: 78,113
Non-trainable params: 0






------------------------------------------------------------------------
Score per fold
------------------------------------------------------------------------
> Fold 1 - Loss: 2420699.6870719176
> Fold 1 - r2_score_train: 0.739788809670769
> Fold 1 - r2_score_test: 0.7282012372691853
…
